…
filename: ../../../data/flexData/chars/charFlex/26char/P/1629374198.2024212.txt label 15 
filename: ../../../data/flexData/chars/charFlex/26char/P/1629374220.9453154.txt label 15 
filename: ../../../data/flexData/chars/charFlex/26char/J/1629373890.697446.txt label 9 
filename: ../../../data/flexData/chars/charFlex/26char/J/1629373910.2688975.txt label 9 
Trainable Parameters: 1.071M
----------------------------------------------------------------
        Layer (type)               Output Shape         Param #
================================================================
            Conv1d-1               [-1, 128, 5]             768
         Rearrange-2               [-1, 5, 128]               0
         LayerNorm-3               [-1, 5, 128]             256
         Rearrange-4               [-1, 128, 5]               0
            Linear-5             [-1, 128, 256]           1,536
              GELU-6             [-1, 128, 256]               0
           Dropout-7             [-1, 128, 256]               0
            Linear-8               [-1, 128, 5]           1,285/home/iot/anaconda3/envs/dataglove/lib/python3.7/site-packages/sklearn/metrics/classification.py:1437: UndefinedMetricWarning: Precision and F-score are ill-defined and being set to 0.0 in labels with no predicted samples.
  'precision', 'predicted', average, warn_for)

           Dropout-9               [-1, 128, 5]               0
      FeedForward-10               [-1, 128, 5]               0
        Rearrange-11               [-1, 5, 128]               0
        LayerNorm-12               [-1, 5, 128]             256
           Linear-13              [-1, 5, 1024]         132,096
             GELU-14              [-1, 5, 1024]               0
          Dropout-15              [-1, 5, 1024]               0
           Linear-16               [-1, 5, 128]         131,200
          Dropout-17               [-1, 5, 128]               0
      FeedForward-18               [-1, 5, 128]               0
       MixerBlock-19               [-1, 5, 128]               0
        LayerNorm-20               [-1, 5, 128]             256
        Rearrange-21               [-1, 128, 5]               0
           Linear-22             [-1, 128, 256]           1,536
             GELU-23             [-1, 128, 256]               0
          Dropout-24             [-1, 128, 256]               0
           Linear-25               [-1, 128, 5]           1,285
          Dropout-26               [-1, 128, 5]               0
      FeedForward-27               [-1, 128, 5]               0
        Rearrange-28               [-1, 5, 128]               0
        LayerNorm-29               [-1, 5, 128]             256
           Linear-30              [-1, 5, 1024]         132,096
             GELU-31              [-1, 5, 1024]               0
          Dropout-32              [-1, 5, 1024]               0
           Linear-33               [-1, 5, 128]         131,200
          Dropout-34               [-1, 5, 128]               0
      FeedForward-35               [-1, 5, 128]               0
       MixerBlock-36               [-1, 5, 128]               0
        LayerNorm-37               [-1, 5, 128]             256
        Rearrange-38               [-1, 128, 5]               0
           Linear-39             [-1, 128, 256]           1,536
             GELU-40             [-1, 128, 256]               0
          Dropout-41             [-1, 128, 256]               0
           Linear-42               [-1, 128, 5]           1,285
          Dropout-43               [-1, 128, 5]               0
      FeedForward-44               [-1, 128, 5]               0
        Rearrange-45               [-1, 5, 128]               0
        LayerNorm-46               [-1, 5, 128]             256
           Linear-47              [-1, 5, 1024]         132,096
             GELU-48              [-1, 5, 1024]               0
          Dropout-49              [-1, 5, 1024]               0
           Linear-50               [-1, 5, 128]         131,200
          Dropout-51               [-1, 5, 128]               0
      FeedForward-52               [-1, 5, 128]               0
       MixerBlock-53               [-1, 5, 128]               0
        LayerNorm-54               [-1, 5, 128]             256
        Rearrange-55               [-1, 128, 5]               0
           Linear-56             [-1, 128, 256]           1,536
             GELU-57             [-1, 128, 256]               0
          Dropout-58             [-1, 128, 256]               0
           Linear-59               [-1, 128, 5]           1,285
          Dropout-60               [-1, 128, 5]               0
      FeedForward-61               [-1, 128, 5]               0
        Rearrange-62               [-1, 5, 128]               0
        LayerNorm-63               [-1, 5, 128]             256
           Linear-64              [-1, 5, 1024]         132,096
             GELU-65              [-1, 5, 1024]               0
          Dropout-66              [-1, 5, 1024]               0
           Linear-67               [-1, 5, 128]         131,200
          Dropout-68               [-1, 5, 128]               0
      FeedForward-69               [-1, 5, 128]               0
       MixerBlock-70               [-1, 5, 128]               0
        LayerNorm-71               [-1, 5, 128]             256
           Linear-72                   [-1, 26]           3,354
================================================================
Total params: 1,070,894
Trainable params: 1,070,894
Non-trainable params: 0
----------------------------------------------------------------
Input size (MB): 0.00
Forward/backward pass size (MB): 3.70
Params size (MB): 4.09
Estimated Total Size (MB): 7.78
----------------------------------------------------------------
(14397, 1) (14397, 1)
…
