…
filename: ../../../data/flexData/chars/charFlex/26char/P/1629374198.2024212.txt label 15 
filename: ../../../data/flexData/chars/charFlex/26char/P/1629374220.9453154.txt label 15 
filename: ../../../data/flexData/chars/charFlex/26char/J/1629373890.697446.txt label 9 
filename: ../../../data/flexData/chars/charFlex/26char/J/1629373910.2688975.txt label 9 
Trainable Parameters: 0.539M
----------------------------------------------------------------
        Layer (type)               Output Shape         Param #
================================================================
            Conv1d-1               [-1, 128, 6]             896
         Rearrange-2               [-1, 6, 128]               0
         LayerNorm-3               [-1, 6, 128]             256
         Rearrange-4               [-1, 128, 6]               0
            Linear-5             [-1, 128, 256]           1,792
              GELU-6             [-1, 128, 256]               0
           Dropout-7             [-1, 128, 256]               0
            Linear-8               [-1, 128, 6]           1,542
           Dropout-9               [-1, 128, 6]               0
      FeedForward-10               [-1, 128, 6]               0
        Rearrange-11               [-1, 6, 128]               0
        LayerNorm-12               [-1, 6, 128]             256
           Linear-13              [-1, 6, 1024]         132,096
             GELU-14              [-1, 6, 1024]               0
          Dropout-15              [-1, 6, 1024]               0
           Linear-16               [-1, 6, 128]         131,200
          Dropout-17               [-1, 6, 128]               0
      FeedForward-18               [-1, 6, 128]               0
       MixerBlock-19               [-1, 6, 128]               0
        LayerNorm-20               [-1, 6, 128]             256
        Rearrange-21               [-1, 128, 6]               0
           Linear-22             [-1, 128, 256]           1,792
             GELU-23             [-1, 128, 256]               0
          Dropout-24             [-1, 128, 256]               0
           Linear-25               [-1, 128, 6]           1,542
          Dropout-26               [-1, 128, 6]               0
      FeedForward-27               [-1, 128, 6]               0
        Rearrange-28               [-1, 6, 128]               0
        LayerNorm-29               [-1, 6, 128]             256
           Linear-30              [-1, 6, 1024]         132,096
             GELU-31              [-1, 6, 1024]               0
          Dropout-32              [-1, 6, 1024]               0
           Linear-33               [-1, 6, 128]         131,200
          Dropout-34               [-1, 6, 128]               0
      FeedForward-35               [-1, 6, 128]               0
       MixerBlock-36               [-1, 6, 128]               0
        LayerNorm-37               [-1, 6, 128]             256
           Linear-38                   [-1, 26]           3,354
================================================================
Total params: 538,790
Trainable params: 538,790
Non-trainable params: 0
----------------------------------------------------------------
Input size (MB): 0.00
Forward/backward pass size (MB): 1.93
Params size (MB): 2.06
Estimated Total Size (MB): 3.98
----------------------------------------------------------------
(14397, 1) (14397, 1)
…
